model/keypoint_classifier/keypoint_classifier.tflite (tflite, 6660 bytes, 6 tensors)

sequential_2/dense_8/BiasAdd/ReadVariableOp f4 [6]
0	0xbeb408b3	-0.35162887
1	0x3e0f6958	0.14005029
2	0x3e53345e	0.20625445
3	0x3e9a4103	0.30127725
4	0xbd38c637	-0.045110907
5	0xbea32f2a	-0.3187192

sequential_2/dense_7/BiasAdd/ReadVariableOp f4 [10]
0	0x3ed67d31	0.41892388
1	0x3f4c73e8	0.7986436
2	0x3df9a0e1	0.12188888
3	0x3e00060a	0.12502304
4	0x3dabf2ad	0.08395896
5	0x3e231729	0.15926804
6	0x3f2d8f2f	0.67796606
7	0xbe1897dd	-0.14901681
8	0xbdf07bb8	-0.117423475
9	0x3ccadac4	0.024762519

sequential_2/dense_6/BiasAdd/ReadVariableOp f4 [20]
0	0xbef2f832	-0.47454983
1	0xbf2d4a05	-0.6769107
2	0xbefe7772	-0.49700505
3	0xbf020baa	-0.5079905
4	0xbec0feeb	-0.37694487
5	0xbee58fec	-0.44836366
6	0xbed1da23	-0.40986738
7	0xbefa0829	-0.4883435
8	0xbf15cb57	-0.58513397
9	0xbe37236c	-0.17884606
10	0xbf3490b4	-0.705333
11	0xbeddec5f	-0.433444
12	0xbead021e	-0.33790678
13	0xbef507c1	-0.47857478
14	0xbf21f8a8	-0.63270044
15	0xbedf9f7b	-0.4367636
16	0xbeb02404	-0.34402478
17	0xbf106ee1	-0.5641919
18	0xbf088e9e	-0.53342617
19	0xbeb68b4d	-0.35653153

sequential_2/dense_6/MatMul f4 [20, 42]
0	0x3e185aae	0.14878342
1	0xbe3dc933	-0.18533783
2	0xbdffed6d	-0.12496457
3	0x3c0e1df4	0.008674134
4	0xbe58e394	-0.21180564
5	0xbcedd3a3	-0.02903158
6	0xbddb75fb	-0.10715862
7	0xbe108ea2	-0.1411691
8	0xbe629276	-0.22126183
9	0xbe4e297e	-0.20133016
10	0x3c25dd36	0.010123542
11	0x3da3fe70	0.080075145
12	0xbdf9d93f	-0.121996395
13	0xbe069b10	-0.13145089
14	0xbc43805b	-0.011932458
15	0xbd5d41b7	-0.05401775
16	0x3c9b76e4	0.01897759
17	0xbd9bc38f	-0.07605659
18	0x3d068419	0.032840822
19	0x3d06a2d9	0.032870147
20	0xbdf2c8dd	-0.11854718
21	0xbce7ad19	-0.028280782
22	0x3d16a2b4	0.03677626
23	0xbda2bf9b	-0.07946702
24	0x3e62381a	0.22091714
25	0x3eb45821	0.35223487
26	0xbe0d9bdd	-0.13828988
27	0xbd641049	-0.055679593
28	0xbbdeb83c	-0.006796865
29	0xbdba838b	-0.09107121
30	0x3e87b8ee	0.26508278
31	0x3d3c29d5	0.04593833
32	0x3ec19b0a	0.37813598
33	0x3f0bca78	0.5460582
34	0xbe3dfa09	-0.18552412
35	0x3b7057a3	0.003667333
36	0xbd1a5711	-0.03768069
37	0xbd3dc94f	-0.04633456
38	0x3dbe515d	0.092928626
39	0x3d82786f	0.06370627
40	0x3ee47a20	0.44624424
41	0x3ebfd011	0.3746343
42	0x3e89d8cc	0.26923215
43	0x3e9a18a4	0.30096924
44	0x3db15283	0.08658316
45	0xbf0a1825	-0.5394309
46	0x3d989930	0.07451093
47	0xbee56395	-0.44802538
48	0x3df4b999	0.119494624
49	0xbeee0349	-0.4648688
50	0xbd3e2e9e	-0.046431176
51	0x3c03ca53	0.008043843
52	0x3e8c89d2	0.274489
53	0xbda81953	-0.08207955
54	0x3c2f1f46	0.0106886085
55	0x3d95f219	0.07321567
56	0xbd113d56	-0.035458885
57	0x3e184552	0.14870194
58	0xbc3c9675	-0.011510481
59	0x3e1ce846	0.1532298
60	0xbe1549aa	-0.14578882
61	0xbea7ad1c	-0.3274926
62	0x3dfe3056	0.12411563
63	0xbd3c4a57	-0.045969333
64	0x3cabd875	0.020977238
65	0x3db91ad1	0.09038318
66	0xbd95c8ab	-0.07313665
67	0x3dafc4f6	0.08582489
68	0xbe014f1d	-0.12627836
69	0xbe268136	-0.16260228
70	0x3e3726b7	0.17885862
71	0xbdb28b9d	-0.08718035
72	0x3d37607d	0.044769753
73	0xbbf46453	-0.0074582486
74	0xbd4875ad	-0.04894035
75	0x3cd2215c	0.025650673
76	0x3df4d819	0.1195528
77	0xbee2eb81	-0.443203
78	0xbd919f80	-0.071105
79	0xbe8784ae	-0.26468414
80	0x3d372fa8	0.044723183
81	0x3daeb651	0.08530868
82	0x3c9e340e	0.019311931
83	0x3df1b2ee	0.11801706
84	0x3dc4f344	0.09616712
85	0xbd992506	-0.07477765
86	0xbcc6fc83	-0.024290329
87	0x3e3062b0	0.17225146
88	0x3e61b8b4	0.22043115
89	0x3d9e0f5a	0.07717772
90	0x3e7efc54	0.24900943
91	0x3dd9e782	0.1063986
92	0x3eb8447e	0.35989755
93	0x3e06e168	0.13171923
94	0xbe1745e9	-0.14772762
95	0x3dc007f2	0.093765154
96	0x3e02a239	0.12757196
97	0x3d47c7c6	0.048774503
98	0x3be4c00a	0.0069809007
99	0x3d159e62	0.036528
100	0xbcf3c83f	-0.02975857
101	0xbbfa6f9f	-0.007642701
102	0xbdfb5294	-0.1227161
103	0x3de7919a	0.11307068
104	0x3ddd2880	0.107987404
105	0x3d1fe6a6	0.039038323
106	0xbd743515	-0.059620935
107	0x3c9d5baa	0.019208748
108	0xbe180bbe	-0.1484823
109	0xbe99630e	-0.29958385
110	0xbd436764	-0.047706023
111	0x3e11edb1	0.14250828
112	0x3d9f1e91	0.07769502
113	0xbccefd26	-0.025267195
114	0xbec13c20	-0.37741184
115	0xbe6facde	-0.23405787
116	0xbf3e51fe	-0.7434386
117	0xbf1dae30	-0.61593914
118	0x3e39d4a7	0.18147527
119	0x3e68c490	0.22731233
120	0x3e3e9e6d	0.18615122
121	0x3e2a3ba8	0.1662432
122	0x3c87962a	0.016551096
123	0x3c121be7	0.008917785
124	0xbeaf2f28	-0.34215665
125	0xbe8870ca	-0.2664855
126	0xbe328534	-0.17433625
127	0xbda5ddd0	-0.08098948
128	0x3c88f62a	0.016718943
129	0x3dbbb63e	0.09165619
130	0x3de5a101	0.1121235
131	0x3e3bb8a5	0.18332155
132	0x3da11966	0.078661725
133	0x3d215d7b	0.03939579
134	0x3e2b2c6c	0.16716164
135	0xbdd235d0	-0.1026417
136	0x3e9d124a	0.30678016
137	0xbef38375	-0.4756123
138	0x3dba41eb	0.09094604
139	0xbe57e0d8	-0.21081865
140	0xbd305ed2	-0.043059178
141	0x3cd26ea0	0.025687516
142	0xbdd626c9	-0.104566164
143	0x3d749ec2	0.059721716
144	0x3eb44898	0.35211635
145	0xbecbe8dc	-0.39826095
146	0x3cb97cc1	0.022642495
147	0x3e182181	0.1485653
148	0xbe6236ab	-0.22091167
149	0x3e425be5	0.18980367
150	0xbe5eb85c	-0.21750015
151	0x3e17dd2a	0.14830461
152	0x3e8e2dca	0.2776931
153	0xbf184cab	-0.59491986
154	0x3e3f7c51	0.18699767
155	0xbb0961cf	-0.002096284
156	0xbdaa24dd	-0.08307812
157	0x3d6742f3	0.056460332
158	0xbdbfb872	-0.09361352
159	0x3cea74bb	0.028620115
160	0x3ea08ab7	0.3135583
161	0xbeadaa7b	-0.3391913
162	0x3e68b273	0.22724323
163	0xbc22617a	-0.009910936
164	0x3dcb7d42	0.099360004
165	0x3e20c2dd	0.15699334
166	0xbdcc8505	-0.09986309
167	0x3e2dc5e5	0.16970022
168	0x3e8c4a22	0.2740031
169	0xbe3fbc2e	-0.18724129
170	0xbe5662be	-0.20936105
171	0xbe843b94	-0.25826705
172	0xbd6d69f1	-0.05796236
173	0xbe8fc0aa	-0.2807668
174	0x3cae6112	0.021286521
175	0xbdd0265a	-0.10163565
176	0x3e72dcbe	0.23717019
177	0xbe4bf8ed	-0.19919176
178	0x3e2bfbbb	0.16795246
179	0x3e082b6d	0.13297816
180	0x3d1c5fb8	0.038177222
181	0x3d904887	0.070450835
182	0xbdd4bf9c	-0.10388109
183	0xbdd74322	-0.105108514
184	0xbdaefd02	-0.08544351
185	0xbe128f58	-0.14312494
186	0x3dbc2c50	0.091881394
187	0x3eaaf30b	0.33388552
188	0x3d177b29	0.03698269
189	0xbd481c88	-0.048855335
190	0xbe3756f4	-0.17904264
191	0x3cc592d8	0.024117872
192	0x3c84e0c0	0.01622045
193	0xbd562cc4	-0.052288786
194	0xbcfe3478	-0.031030878
195	0x3e2c9ced	0.16856737
196	0x3c3fc03b	0.011703546
197	0x3e104095	0.14087136
198	0xbd331025	-0.04371657
199	0x3ed962ba	0.42458135
200	0x3eb3d81d	0.3512582
201	0x3eadac79	0.3392065
202	0xbdf9d477	-0.121987276
203	0x3e947720	0.28997135
204	0xbe175697	-0.14779125
205	0xbd78d45e	-0.060749404
206	0x3e138c1c	0.14408916
207	0x3e332da5	0.17497881
208	0x3e948a59	0.290118
209	0x3e5f2a96	0.21793589
210	0xbdae2324	-0.08502796
211	0xbe45cddc	-0.1931681
212	0x3e29d3d1	0.16584708
213	0x3ed55e83	0.4167367
214	0x3cfe9f1d	0.03108173
215	0x3e963345	0.2933599
216	0x3bd95fa5	0.006633716
217	0x3dfda481	0.12384892
218	0x3acab93c	0.0015466581
219	0xbcde6bc9	-0.027151005
220	0xbe129933	-0.14316253
221	0xbdd1ba41	-0.10240603
222	0x3cdf5397	0.027261538
223	0x3dae4f2a	0.08511193
224	0x3dbdd344	0.09268811
225	0x3e1ff248	0.15619767
226	0x3d4de17b	0.050263863
227	0x3e04372d	0.12911673
228	0x3c16020e	0.009155763
229	0xbde71b94	-0.11284557
230	0xbdae49bd	-0.08510158
231	0x3d26dd2c	0.04073827
232	0xbd2a0f40	-0.04151845
233	0xbce2f304	-0.02770377
234	0x3dc551eb	0.09634765
235	0xbdbe109c	-0.09280512
236	0xbe38bf1e	-0.18041655
237	0xbda1afad	-0.078948356
238	0xbd0b0545	-0.033940572
239	0xbd411059	-0.04713473
240	0x3e4869ac	0.1957156
241	0xbe27fc58	-0.16404855
242	0xbec07316	-0.37587804
243	0xbee10390	-0.4394803
244	0x3e163cee	0.1467168
245	0xbea592bc	-0.32338512
246	0xbe19136b	-0.14948814
247	0xbd75dbaa	-0.06002394
248	0x3d988303	0.074468635
249	0xbea7664f	-0.32695243
250	0x3dc4abcf	0.096030824
251	0xbf001331	-0.50029284
252	0xbd6574a8	-0.056019455
253	0x3e402884	0.18765455
254	0xbec57001	-0.38562015
255	0x3d1e95fd	0.03871726

sequential_2/dense_7/MatMul f4 [10, 20]
0	0xbe56d712	-0.2098048
1	0x3e58dadf	0.21177243
2	0xbf12fe4a	-0.57419264
3	0x3f43330f	0.76249784
4	0xbeb3bdf0	-0.35105848
5	0xbef9215f	-0.48658273
6	0xbba01a48	-0.0048859455
7	0xbe9c8699	-0.3057144
8	0xbe9289c5	-0.28620735
9	0x3ee19924	0.4406215
10	0x3e2bf857	0.16793953
11	0x3eded229	0.43519714
12	0xbf4ca29c	-0.7993562
13	0x3e9a950c	0.3019184
14	0x3e8af99a	0.27143556
15	0xbf4b8eee	-0.7951497
16	0xbf0ff5a0	-0.5623417
17	0x3ebd7f13	0.37011012
18	0x3e6cb5f5	0.23116286
19	0xbf333489	-0.7000204
20	0xbef0ca8e	-0.47029537
21	0x3e08e758	0.133695
22	0xbe004eff	-0.12530135
23	0x3e3bb31f	0.18330048
24	0xbef1cd52	-0.4722696
25	0xbdf1ce88	-0.11806971
26	0xbe812c8a	-0.25229293
27	0xbef55c78	-0.4792211
28	0xbee06219	-0.43824843
29	0x3ee4d8bc	0.44696605
30	0x3deff353	0.11716332
31	0x3ebe737a	0.37197477
32	0xbe7251f5	-0.23664077
33	0x3ed128af	0.40851352
34	0xbeb9e6bb	-0.36308846
35	0xbe771d67	-0.2413231
36	0x3e23c9a0	0.15994883
37	0xbdefe048	-0.117127
38	0x3e263462	0.1623092
39	0x3e73efa3	0.23821883
40	0xbe3a8476	-0.18214592
41	0x3f3be379	0.7339397
42	0xbe8a58bf	-0.27020833
43	0x3ec879a7	0.39155313
44	0x3e28330b	0.16425721
45	0x3e058034	0.13037187
46	0x3e5ac0cd	0.2136261
47	0x3f03fbab	0.5155589
48	0x3e1bf22a	0.15229097
49	0x3dc0e3a8	0.09418422
50	0x3efc5f10	0.49291277
51	0x3ded6902	0.11592294
52	0xbe2a0d89	-0.16606726
53	0x3f1e58b2	0.6185409
54	0x3f03f06f	0.5153875
55	0x3e803f03	0.25048074
56	0xbe9fc93f	-0.31208226
57	0x3f39afe4	0.7253401
58	0x3ea2328f	0.31679198
59	0xbe952bd8	-0.29135013
60	0x3ece2576	0.40262955
61	0x3d046720	0.03232491
62	0x3f478357	0.77934784
63	0x3bf55bc3	0.0074877455
64	0x3ec67b43	0.38765916
65	0x3e9de5b1	0.30839303
66	0x3ed2de80	0.4118538
67	0xbd290d8d	-0.04127269
68	0xbeb6fc90	-0.35739565
69	0x3e5dc8fd	0.21658702
70	0xbd1f3bc6	-0.038875364
71	0xbd9006ef	-0.070325725
72	0x3f1b3599	0.6062866
73	0xbebe03c2	-0.37112242
74	0xbe899f2d	-0.26879254
75	0x3eb5525d	0.354144
76	0x3e820772	0.25396305
77	0xbe4d563a	-0.20052424
78	0xbe950754	-0.29107153
79	0x3effdb8d	0.4997219
80	0x3e4c8423	0.19972281
81	0xbdd1a0a1	-0.10235716
82	0x3dd64a6c	0.104634136
83	0xbec21551	-0.37906888
84	0xbea697f3	-0.32537803
85	0x3d4c7a72	0.04992146
86	0x3c5fdeb7	0.013663939
87	0xbf10dbc2	-0.56585324
88	0xbe3f5e41	-0.18688299
89	0x3cb4a89f	0.022053061
90	0x3da60850	0.08107054
91	0xbd027386	-0.031848453
92	0x3ed761fb	0.4206694
93	0xbe48211b	-0.19543879
94	0xbd19066d	-0.037359644
95	0x3dbef902	0.09324838
96	0x3ea53966	0.32270354
97	0x3de213cb	0.110389315
98	0xbe035df7	-0.12828813
99	0x3f00a771	0.50255495
100	0x3f279935	0.6546815
101	0xbec3978d	-0.38201562
102	0x3ef21acf	0.47286078
103	0xbea6c62e	-0.32573074
104	0x3e3b3b45	0.18284328
105	0x3e55256c	0.20815057
106	0x3f259b87	0.6469044
107	0x3de261ce	0.11053811
108	0x3f006c7d	0.5016554
109	0x3ea4ace3	0.32163152
110	0xbe2384bf	-0.15968607
111	0xbe86e9b2	-0.2635017
112	0x3f2d9980	0.6781235
113	0xbe8b23ca	-0.27175742
114	0x3da64e3d	0.081203915
115	0x3f2798bc	0.6546743
116	0x3ef343eb	0.47512755
117	0xbda6e297	-0.08148687
118	0xbf0808de	-0.5313853
119	0x3f3ee1ae	0.7456311
120	0x3e9e65b7	0.30936977
121	0xbecd65d3	-0.40116748
122	0x3e916a13	0.2840124
123	0xbe375ec7	-0.17907248
124	0xbd07b6e6	-0.03313341
125	0xbddf7f39	-0.10912938
126	0x3e2a2941	0.166173
127	0xbeb42062	-0.35180956
128	0x3eb092c2	0.34486967
129	0x3f1cf11e	0.61305416
130	0xbe4b858e	-0.19875166
131	0xbe8db394	-0.2767607
132	0xbc3307ea	-0.01092718
133	0xbeb6b3c1	-0.35684016
134	0x3e287cca	0.16453853
135	0x3c874a66	0.016514968
136	0x3e9aa78e	0.3020596
137	0xbe5d9be4	-0.21641499
138	0xbe82f1a1	-0.25574973
139	0x3dbafc85	0.091301955
140	0xbd3320ff	-0.04373264
141	0x3ef7da0a	0.48408538
142	0xbd4a2c8a	-0.049358882
143	0x3ef27cd9	0.47360876
144	0xbda952d8	-0.08267754
145	0x3eb272bd	0.34853163
146	0x3f127c57	0.5722098
147	0x3f53f3b5	0.8279374
148	0x3e3f7763	0.18697886
149	0x3bb0fbd0	0.005401112
150	0xbf377675	-0.71665126
151	0x3eea669e	0.45781416
152	0xbde79a73	-0.11308756
153	0x3ee5cca2	0.44882685
154	0xbe04a9c6	-0.12955388
155	0xbe9a05df	-0.30082604
156	0x3dae39a7	0.0850709
157	0x3ee3cebb	0.4449366
158	0x3e18f65c	0.14937729
159	0xbdb05b63	-0.08611181
160	0x3f017dcb	0.5058257
161	0xbec7a8c6	-0.3899595
162	0x3eb0ef26	0.34557456
163	0xbd7556fd	-0.05989741
164	0x3e89a884	0.2688638
165	0x3e8118fc	0.25214374
166	0x3edf2ff5	0.43591276
167	0x3f0ec5dc	0.5577066
168	0x3f12a031	0.5727568
169	0x3dee0413	0.11621871
170	0x3efc1a13	0.49238643
171	0xbea14482	-0.3149758
172	0x3f104204	0.5635073
173	0xbe497364	-0.19672924
174	0x3f0b8245	0.5449565
175	0x3eacc150	0.33741236
176	0x3e80052a	0.2500394
177	0xbe9c6398	-0.30544734
178	0xbe59e2fd	-0.21277995
179	0x3e73aaa8	0.23795569
180	0xbd44e580	-0.04807043
181	0x3efb2780	0.49053574
182	0x3e650e37	0.22368704
183	0x3e999628	0.29997373
184	0x3f1a42b2	0.6025802
185	0x3ec86d54	0.3914591
186	0x3d958071	0.07299889
187	0x3e89549c	0.26822364
188	0x3eae4f61	0.34044936
189	0xbdba9307	-0.091100745
190	0x3e6d66e4	0.23183781
191	0x3ef3074c	0.47466505
192	0x3ebe811b	0.37207875
193	0x3ead06ae	0.3379416
194	0xbe9ab71a	-0.3021782
195	0x3d5354eb	0.051594656
196	0xbe473884	-0.19455153
197	0xbd1e3691	-0.038626257
198	0x3f3d472c	0.73936725
199	0x3e49ec9f	0.1971917

sequential_2/dense_8/MatMul f4 [6, 10]
0	0x3ec69c3e	0.38791078
1	0xbee3b09d	-0.44470683
2	0x3f94f2be	1.1636579
3	0xbf60b52f	-0.87776464
4	0xbebd1b5d	-0.3693494
5	0xbebcb0b7	-0.36853573
6	0xbf89b1d7	-1.0757397
7	0x3f283eff	0.65721124
8	0x3e2b5268	0.16730654
9	0x3f8671a5	1.0503432
10	0x3f86c32c	1.0528312
11	0x3ee9300e	0.45544475
12	0x3f068fec	0.5256336
13	0xbde41652	-0.1113707
14	0xbf948781	-1.1603853
15	0xbf89222b	-1.0713552
16	0x3e282ae4	0.16422611
17	0xbed4b72a	-0.41545993
18	0xbf2f82d1	-0.68558985
19	0xbf01a0e0	-0.506361
20	0xbd88bdbb	-0.06676813
21	0x3f9e3169	1.2358829
22	0xbf003824	-0.50085664
23	0xbeda7389	-0.4266627
24	0x3d7fc911	0.06244761
25	0xbe759bd6	-0.23985228
26	0x3eacbc3b	0.33737358
27	0xbed93113	-0.42420253
28	0xbfa0fa45	-1.2576376
29	0xbf08b120	-0.5339527
30	0xbf147dfe	-0.5800475
31	0x3ea73050	0.32654047
32	0xbec57d22	-0.3857203
33	0x3ee37d35	0.44431463
34	0xbeb2ca24	-0.34919846
35	0x3f0541f4	0.5205376
36	0x3e165eb0	0.14684558
37	0xbf572226	-0.8403648
38	0xbe428e64	-0.1899963
39	0xbef49d05	-0.47776046
40	0xbf13a7c7	-0.5767788
41	0xbf475364	-0.7786162
42	0xbeb33a48	-0.35005403
43	0x3e48763d	0.19576354
44	0x3e8abb27	0.2709591
45	0x3f3a29ec	0.7272022
46	0x3f158e15	0.58419925
47	0xbf7ee890	-0.9957361
48	0xbe1c1948	-0.15244019
49	0x3ec2fc15	0.38082948
50	0xbf4613a0	-0.77373695
51	0xbf440456	-0.76569116
52	0xbe37c918	-0.17947805
53	0x3f125844	0.5716593
54	0xbe97aa4a	-0.29622108
55	0x3f40f34a	0.7537123
56	0x3d57406c	0.05255167
57	0x3e861f4a	0.26195747
58	0x3f2d0795	0.67589694
59	0xbed5567d	-0.41667548
