model/keypoint_classifier/keypoint_classifier.tflite (tflite, 6872 bytes, 6 tensors)

sequential_4/dense_14/BiasAdd/ReadVariableOp f4 [10]
00000000: a024 35bf f2fe 8f3e 788e 3b3f 03c2 073f
00000010: 0de1 b33e 4c15 06bf 1995 e1be 68b2 d6be
00000020: 2e26 f4be 2431 f1be
-0.7075901 0.28124195 0.73264265 0.53030413 0.35132638 -0.52376246 -0.44059065 -0.41932988
-0.4768538 -0.47107804

sequential_4/dense_13/BiasAdd/ReadVariableOp f4 [10]
00000000: bd27 ab3e 9f8d c43e e9f9 003f d307 02bf
00000010: c43f 54bf ec38 703f 11d6 36bd c8df aa3f
00000020: d6e3 b03d 48be afbe
0.33428755 0.38389298 0.5038133 -0.5079319 -0.829098 0.93836856 -0.044637743 1.3349543
0.08637206 -0.3432486

sequential_4/dense_12/BiasAdd/ReadVariableOp f4 [20]
00000000: 83ae 3dbf aafc a3be 3a64 3cbf 767c f4be
00000010: cd49 43bf 00f5 8dbe 3507 d1be e8c9 d1be
00000020: 2fea 0bbf 8eae a9be 2e59 d6bd 3608 2fbf
00000030: ad59 3dbf 1e6b f7be 17e4 40bf 520c 35bf
00000040: b8c1 b2be 73f5 ecbe 9114 69be 99e5 38bf
-0.7409441 -0.32028705 -0.73590434 -0.47751206 -0.76284486 -0.27725983 -0.4082581 -0.40974355
-0.5465421 -0.33140987 -0.104662284 -0.68371904 -0.7396496 -0.4832391 -0.7534804 -0.70721924
-0.3491342 -0.46281013 -0.22761752 -0.7222534

sequential_4/dense_12/MatMul f4 [20, 42]
00000000: a8a8 543d 62a6 953e f0c3 da3e 8deb 143e
00000010: d4ac e73e 5a30 41bc 4fd1 a53e 00bc d6bb
00000020: a5cc 943e 5e02 80be 0095 a13e d257 11bf
00000030: ce3b d73d 7cea bebd 3f47 efbd 1286 ef3d
00000040: 75ad 40be 6f93 f13d 6d75 2d3e 591e 0fbf
00000050: 8b42 203e 21c5 3e3e 8fc3 48be 986f 913e
00000060: 459b 7cbe c6e7 6c3e f821 583e 04a0 2dbf
00000070: 4b71 873e 1637 30bd 7e06 c3bd 35af cf3d
00000080: 0d7b 6bbe ca05 eb3c e019 fc3e ffff f6be
00000090: 4636 003f b4a1 1ebd 6986 113e 4a85 04bd
000000a0: 8d21 06be 31d6 b33d 9067 4d3e b45b 8e3d
000000b0: 227c d2be 5da3 9c3e ac73 6ebe bdcc 3d3e
000000c0: 74a3 d2bd 2144 573e 1a79 26be 84c3 783e
000000d0: 5016 83bd a18c 333e 2798 c0bd 4d4e 923d
000000e0: 86c3 00bd 560b c9bd 3306 9f3c b087 e1bc
000000f0: 81c8 82bc ec1b 003e c5e4 983d 1d3d febb
00000100: 1cfb f63e dff4 fdbe fa2f 803f 431e 17bf
00000110: f43f 77bd b3ac 443e 531c 2cbd b6b2 90bd
00000120: da74 553e b7eb 36be fa2e f53d f182 b6be
00000130: 67a5 a83b eb7b b53e d437 d1bd c671 363e
00000140: 5961 82be bb1f cbba 04b8 10bf 1009 1bbe
00000150: 7a38 49be f081 97be 7dea e13e ab2f 083f
00000160: 1881 ec3e 0329 0c3f c11f 593e 2d36 dc3e
00000170: 513d 353e 3fb6 c33e dd89 843e aedb 083f
00000180: fd4c d3bd 202f 683e dee0 40be f4f9 41be
00000190: 7ec2 d7bd f258 bfbe 0dff 693e 8b1b 243f
000001a0: e4b9 403c 9ba6 7d3e 876d db3c 445f 41be
000001b0: 9aff 553b bbdb bdbe 05c6 e3bd 025e 053f
000001c0: 17f7 343d 1358 3e3e 3a77 a73d 3024 29be
000001d0: 56c1 f03b 02cd cfbe 189f 47be 86c9 be3e
000001e0: 6b24 bcbc 90c3 e23e ba7e bf3d 26ae 683e
000001f0: 4ec6 b03c 162f 5cbc 3644 973e 200e 753e
00000200: 9f6a a5be 9721 f33d 9f07 88be 721f 253c
00000210: 8fc0 dabe 4785 063c b30c cabe e85c 17bd
00000220: d60d 023e 35ee 6d3d 2cdf 6dbe 6ee3 9cbc
00000230: cadc 80be a8b9 ed3c 17f5 58be 8fcc ed3b
00000240: 0415 0e3e 6fdd 213e 56f8 efbd 34a1 9ebd
00000250: 17e9 af3d 80fa 9d3d dce3 863e 23a0 79bc
00000260: 8426 96bd 911d c03d 4130 0f3e 84ac 1ebd
00000270: 5742 273f e45b ae3d 8cc7 313f 882f df3d
00000280: 780f 46be 3f3c 50bd 2b71 a1bc 5b0a 20be
00000290: 34e0 293f 027b 31be 30f1 3e3f d701 febd
000002a0: 0c79 ce3d 1520 68be 464d 23be 3ccb 0bbf
000002b0: 9252 5dbc ce2e c2be 6fd8 b83d fd19 80be
000002c0: 2719 f83d 5c5e 83be 0228 db3d bde2 163e
000002d0: b6a5 00bd 8636 b0bd 9b54 d2bc a389 12be
000002e0: a926 0bbd b36f 65be 9c2d 9e3d 2536 263e
000002f0: f1ac 72b9 426f 18be a166 f0ba a772 7dbe
00000300: dab2 f1bd ebca 82be 04d3 363c a3f8 b43e
00000310: f0f0 34be c172 8ebd 5ec1 2dbe 4235 5c3e
00000320: 7c12 1d3e d861 b03e 765a 10bd bb94 713e
00000330: dc61 12be 6619 963e e0db 9f3d a965 2c3f
00000340: c262 df3e f886 b13f fb78 98be e7a9 9ebe
00000350: 23c3 afbd 7b64 1ebf 429e 00be b2a6 3fbe
00000360: 8683 05be 8103 bbbd e7d5 943d 9b7e 1bbe
00000370: 8030 a6bd 3715 f43c 1ac9 783d 1aa3 183c
00000380: 6987 13be c534 233d 66db b0bd 821f 9c3d
00000390: 8879 06bd db5e 033f d8da 873e d292 03bd
000003a0: 7e93 0a3f 5bdf b43d 1881 653f f2d0 073f
000003b0: f2cc 27bc c18b 0c3f 2218 9f3e 7cfa 81bd
000003c0: 5e26 903e 15c8 a83e a54e 043f ca04 313f
000003d0: 7094 0b3e 13a8 0b3f b1bc aabe 1f5d 2cbf
000003e0: fe99 1cbf 6731 eebe 9874 62bf 8cf4 c8be
000003f0: fe6c 093e 2850 3a3e 8182 f7be 9c6f 2b3c
0.051918656 0.29228503 0.42727613 0.1454298 0.45249045 -0.011791313 0.32386252 -0.006553173
0.2906238 -0.25001806 0.3155899 -0.5677463 0.10509454 -0.09322068 -0.11683511 0.11695494
-0.18816169 0.11795699 0.16939326 -0.5590568 0.15650384 0.18629886 -0.1960585 0.28405452
-0.24668606 0.2313529 0.21106708 -0.6782229 0.26453623 -0.043021284 -0.09522723 0.1014084
-0.22996159 0.028689284 0.4923849 -0.48242185 0.50082815 -0.03872843 0.1421143 -0.032353677
-0.13098736 0.08781088 0.20059037 0.06951085 -0.4111033 0.30593386 -0.23286313 0.18535133
-0.102850825 0.21022083 -0.16257134 0.24293333 -0.0640074 0.17534114 -0.09404021 0.07143841
-0.031436466 -0.09816615 0.019412136 -0.027530521 -0.015964748 0.12510651 0.07465509 -0.00775875
0.48238456 -0.49600884 1.0014641 -0.5903055 -0.060363725 0.19206505 -0.0420192 -0.070653364
0.20845357 -0.17863356 0.11971851 -0.35646775 0.0051466706 0.35446104 -0.102157265 0.17816839
-0.25464895 -0.0015497127 -0.56530786 -0.15140176 -0.1965045 -0.29591322 0.44124213 0.53197736
0.4619224 0.5475008 0.2120352 0.43010083 0.17699172 0.3822498 0.2588643 0.53460205
-0.10317419 0.22674227 -0.1883578 -0.18943006 -0.10535143 -0.37372547 0.228512 0.6410453
0.01176307 0.24770586 0.026785625 -0.18883997 0.003265357 -0.37081704 -0.111217536 0.5209657
0.044180956 0.18588285 0.081770375 -0.1651771 0.007347266 -0.40586096 -0.19494283 0.37263125
-0.022966584 0.44289827 0.09350343 0.22722682 0.021578934 -0.013438961 0.29544228 0.2393117
-0.32307908 0.11871641 -0.26568314 0.010078298 -0.42725036 0.008210487 -0.39462814 -0.036953837
0.1270059 0.0580885 -0.23229665 -0.019151416 -0.2516845 0.029019192 -0.21187244 0.0072570513
0.13875204 0.15807126 -0.11717288 -0.07745591 0.0858938 0.07713795 0.26345718 -0.0152359335
-0.07331565 0.09380639 0.13983251 -0.038738742 0.653356 0.085136205 0.6944511 0.10897738
-0.19341838 -0.050838705 -0.019707283 -0.1562895 0.6635773 -0.1733208 0.7458677 -0.12402695
0.100816816 -0.22668488 -0.15947446 -0.54606986 -0.013508456 -0.37926334 0.090256564 -0.25019827
0.121141724 -0.25657928 0.1070099 0.14734931 -0.031408034 -0.086041495 -0.025675109 -0.14310317
-0.033972416 -0.22405891 0.07723543 0.16231592 -0.00023143344 -0.14886191 -0.0018341133 -0.24750768
-0.11801691 -0.2554544 0.0111587085 0.35345945 -0.17670035 -0.06955481 -0.16968295 0.21504691
0.15339082 0.3444965 -0.03524252 0.23591892 -0.14295143 0.29316252 0.0780561 0.6734262
0.43630034 1.3869314 -0.297798 -0.30989 -0.08582141 -0.6187207 -0.1256037 -0.18715933
-0.13038453 -0.09131528 0.07267361 -0.15185015 -0.081147194 0.029795272 0.06073866 0.00931623
-0.14407124 0.039845247 -0.08635597 0.07623197 -0.032830745 0.5131661 0.26534152 -0.03212244
0.54131305 0.08831664 0.89650106 0.530532 -0.010241734 0.5490075 0.310731 -0.06346604
0.28154272 0.3296515 0.516825 0.6914793 0.13630843 0.54553336 -0.33347085 -0.6732959
-0.61172473 -0.46522066 -0.8845916 -0.39249074 0.13420483 0.1819464 -0.48341754 0.0104636215

sequential_4/dense_13/MatMul f4 [10, 20]
00000000: 4268 65be d828 293e 6236 9a3d b815 6dbd
00000010: 734a 5fbe e111 d53e 6bc7 e6bc 0333 d03e
00000020: 2f63 68bd df18 983e 2048 f23d b958 0c3e
00000030: 285d 913e 5d5c bc3e 048b 683e 63a4 5ebf
00000040: 81c7 0f3d 3cf4 1dbe 88e2 06bf cc39 37be
00000050: 3b85 8cbe bd98 ac3e f1bc e2be 3b1c 883e
00000060: 7437 62be 5078 953e 65e5 13be 2b06 fbbe
00000070: 2111 b7be d25b 2d3e 61d1 a23d 129e 95bc
00000080: aedd 81be 7492 91be e826 863b c6a6 b5bd
00000090: bf7b d53d 2b92 6abd 13a8 df3e 9848 99be
000000a0: 505e 07be c7b2 cfbe 6d7d ebbe 9eb0 8d3e
000000b0: 239a 3d3f f09a 233c d011 92bc 5546 9b3e
000000c0: 75c6 03bf 8fc1 92bf 92eb c23e fc46 1dbf
000000d0: 5213 14bf 97fb 71bf 0d28 c13e 1020 ef3e
000000e0: 4461 d03e 1a8a b2be 6fc2 11bf 4211 8ebe
000000f0: 1a8a 6dbe ddec ac3d 49da 4ebd 7191 36bf
00000100: c92c 64be d4b6 243e 6cee a33e 7107 bf3e
00000110: 9d64 1a3f 5061 dfbd 54a8 75be 8f18 ae3e
00000120: c157 d13e f286 803d 078d 973f 510f cb3e
00000130: 9bd8 1dbe db64 e1bc f833 713e d14d 0f3f
00000140: edb9 363f bee9 9ebd aee8 5f3f 1585 c63e
00000150: c0a9 a23d 9eb4 bb3d 48d9 423f 5c89 79be
00000160: 26a0 58bf 68c1 7dbe 9b07 5dbb e92f f6be
00000170: 2692 ecbd 890f 09be 7d80 b83e 10bb c4be
00000180: 4ac5 a4be f877 c13d e29a 7abe ec74 233f
00000190: f75a 2f3f 84ee bcbe 7e87 e8be 0388 663d
000001a0: ceb8 02bf 7f19 9ebe 1674 b4be f34e 98be
000001b0: 4ba6 3ebf 47cc d3be d742 033e cfbd 053f
000001c0: 21cc 0ebf c7e7 48be 1653 dbbe 3de9 d1be
000001d0: 311d 563e f305 103e 27af 8ebe 624f b33e
000001e0: e836 2e3f 8b1d 723d 9692 10bf b99d 423e
000001f0: c521 e93e 4fdc 223d 8822 96be a26b 793e
00000200: b42e b4be 2dc2 44bb 39f8 43be f85a 183f
00000210: d454 8bbd 16f5 ae3d c0a3 b13d 8dd3 a43e
00000220: 0919 9bbe 7096 0d3f a232 33bd 0ee6 70bf
00000230: f0d8 9d3e b84c 1b3f a13c 8d3e 8e7d 8fbe
00000240: ef75 0dbf ac9a 6b3e 9db9 2a3f 864d 03bf
00000250: d07f b0be 7fd7 4b3d 5f77 283f 4758 523e
00000260: 52b7 103c 3445 72be b74e e73d eb61 063e
00000270: 29af 873f 8250 0d3f aa5c dc3e c299 193f
00000280: 7637 1d3d 47fc 6a3f c77f 8dbe 4ed8 733f
00000290: 1694 753f 4aa0 c73e 3572 283e e50c ab3f
000002a0: 7773 ac3f 2242 5b3f adc0 31bd ba74 e5be
000002b0: e7ee 803f ea2b 8a3f 3c72 753f dfdc 6c3f
000002c0: ba4f 89bd 2a53 ca3e e459 013f a100 f53d
000002d0: 4032 a6be e656 11be 1d5f 6c3f ee74 04bf
000002e0: 043a e33e bc1c 093f 4c24 dbbe 46ac 8fbe
000002f0: 94f3 d2bc 5fc5 babe 85be 50bc 12f6 683f
00000300: 79eb 1f3f 4be8 91be aa0f 6bbe 2a4f 623d
00000310: ce5e 11bd b9eb 153f e5a3 11be 6780 143f
-0.22403052 0.16519487 0.07529904 -0.05788204 -0.21805744 0.41615203 -0.028171262 0.4066392
-0.056735214 0.29706475 0.11830163 0.1370572 0.28391385 0.36789218 0.2270928 -0.86969584
0.03510237 -0.154252 -0.5268941 -0.17893142 -0.27445397 0.3371028 -0.44284776 0.26584038
-0.22091466 0.29193354 -0.14442976 -0.49028143 -0.35755256 0.16929558 0.07950092 -0.01826385
-0.2536444 -0.28432047 0.0040939935 -0.088697 0.10423993 -0.057268303 0.43682918 -0.29938197
-0.13219571 -0.40566084 -0.4599413 0.2767381 0.7406332 0.00998567 -0.01783076 0.30327097
-0.51474696 -1.1465319 0.3807035 -0.6143644 -0.5784198 -0.9452452 0.3772587 0.4670415
0.40699208 -0.34870988 -0.5693731 -0.27747542 -0.23197213 0.084436156 -0.05050114 -0.71315676
-0.22282709 0.16085368 0.3201784 0.37310365 0.60309774 -0.10907233 -0.23989993 0.34003112
0.40887263 0.06275739 1.1839913 0.39660123 -0.1541466 -0.027513912 0.23554981 0.55978113
0.7137745 -0.077594265 0.87464416 0.3877341 0.079425335 0.09165309 0.76112795 -0.24368805
-0.8461937 -0.2478081 -0.0033726457 -0.48083428 -0.11551313 -0.13384832 0.3603553 -0.38423967
-0.3218177 0.0944671 -0.24473146 0.63850284 0.68498176 -0.36900723 -0.45415872 0.056282055
-0.5106324 -0.30878827 -0.35244817 -0.29747733 -0.7447249 -0.4136679 0.12818466 0.5224275
-0.55780226 -0.19619666 -0.42836827 -0.4099826 0.20909573 0.1406477 -0.27868006 0.35021502
0.6805253 0.059110206 -0.5647367 0.19005479 0.45533577 0.039760884 -0.2932322 0.24357465
-0.35191882 -0.0030022964 -0.19137658 0.5951381 -0.06803289 0.0854284 0.08673811 0.3219265
-0.30292538 0.55307674 -0.04374946 -0.94101036 0.30829573 0.6066394 0.2758532 -0.28025478
-0.5525808 0.23008221 0.66689473 -0.51290166 -0.34472513 0.04976606 0.65807146 0.20541488
0.0088327695 -0.23659211 0.112943105 0.1312329 1.060033 0.5520097 0.43039447 0.6000024
0.03838297 0.91791195 -0.2763655 0.9525193 0.95929086 0.38989478 0.16449817 1.336331
1.3472737 0.85647786 -0.04339664 -0.44815618 1.0072907 1.0794652 0.9587743 0.9252452
-0.0670466 0.39516574 0.5052779 0.119630106 -0.32460213 -0.14193305 0.9233263 -0.5174092
0.443802 0.5355947 -0.4280113 -0.28061122 -0.025750913 -0.36478707 -0.012740736 0.91000473
0.6246868 -0.28497538 -0.22955194 0.055251278 -0.035490803 0.5856281 -0.14222677 0.58008426

sequential_4/dense_14/MatMul f4 [10, 10]
00000000: d0ba 05bf 8ec1 8e3d de82 913e c9b5 d63e
00000010: 6933 a53f 8399 083f d510 813f c652 6ebe
00000020: 5b63 f2bd 925c 483f 67b3 8ebe 7e41 4abf
00000030: 91ef 6d3f 2b27 bfbe ada5 c63e 88ac 253f
00000040: 7ee7 083d 4d35 c23e 81ec 19bf 21b6 1ebe
00000050: 7be6 79be 1c9a 0b3f 2efe 17bf 6b4f c7bf
00000060: ab17 48be b810 5f3b b889 35bf 2c30 253f
00000070: 87c4 dabe 3cf1 55be 1b49 043f 873e 0e3f
00000080: 8a16 53be 88fd f3be 827b e9be 612d 81be
00000090: 7e77 9abf 479b 4a3d ce50 b93e bb97 d4be
000000a0: b4ae 1c3e 4daf d9bd ecf1 f23e 4a85 0f3d
000000b0: 175c 00bf 61e6 2cbf 0f0a 26bf 3e4e 4dbd
000000c0: 4c4f 1d3f 803d 1fbe e493 9c3c cd7e 4e3e
000000d0: fb97 223f 00c3 1c3f eb19 81bd 5a93 bebe
000000e0: c8d1 9e3c f0ec 8dbe 9645 3b3f ea5a cabe
000000f0: ebb1 01bf 1c8d 1ac0 eb37 4cbf 655d 5c3c
00000100: 487b 98be aaa0 f6bf 3827 2d3e 8a6b b3bf
00000110: 95a1 78bf 0c0e 02bf 0b18 55bf 2c23 32c0
00000120: bd58 19bf 39d8 59be bdc5 563d e387 b3bf
00000130: 9d03 37be 310b d1bf caa8 0fbf 7fbb 82bf
00000140: 9518 a7be 894f 21c0 24a8 79bf 75fa bf3c
00000150: f464 75bf 6416 1cc0 7f17 02bd 651a 73bf
00000160: a35b 91bf d61a afbf d0d8 d3be 7cc4 02c0
00000170: acc3 7abe 61cb 59be a52c d5bd 8295 17c0
00000180: f696 3d3d 2d72 a0bf 2512 2ebf 43eb 92bf
-0.5223818 0.069705114 0.28420156 0.41935566 1.2906314 0.5335924 1.0083262 -0.23273763
-0.11835357 0.7826625 -0.27871248 -0.79006183 0.92943674 -0.3733457 0.38798276 0.64716387
0.033423893 0.3793129 -0.601265 -0.15499164 -0.24404328 0.5453203 -0.5937222 -1.5571111
-0.19540279 0.0034037065 -0.7091327 0.6452663 -0.42728063 -0.20892805 0.5167405 0.5556416
-0.20614067 -0.47654366 -0.4560204 -0.25229934 -1.2067716 0.04946449 0.36194462 -0.4152201
0.15301019 -0.10629139 0.47450197 0.035039224 -0.5014052 -0.6753903 -0.648591 -0.050123446
0.6144912 -0.15550804 0.019113488 0.20165558 0.63513154 0.61235046 -0.063037716 -0.37221795
0.01938714 -0.2771983 0.73153055 -0.39522487 -0.50662106 -2.4148626 -0.79772824 0.013450001
-0.29781556 -1.9267781 0.16909492 -1.4017193 -0.97121555 -0.50802684 -0.8323981 -2.7833967
-0.5990103 -0.21273889 0.05243467 -1.4025844 -0.17872472 -1.633154 -0.56116927 -1.0213469
-0.32635942 -2.5204794 -0.9752219 0.023434857 -0.9585717 -2.4388666 -0.03176069 -0.9496215
-1.135609 -1.3680065 -0.41376352 -2.0432425 -0.24488705 -0.21268989 -0.10408906 -2.3685002
0.046286546 -1.2534844 -0.67996436 -1.1478046
