model/point_history_classifier/point_history_classifier.tflite (tflite, 6432 bytes, 6 tensors)

sequential/dense/BiasAdd/ReadVariableOp f4 [24]
000000 4d 8e a6 bd f9 72 23 be 7f fe d2 bc a7 ab f3 bc
       -0.081326105 -0.15961827 -0.025756119 -0.029744936
000010 41 18 90 bd ca 5f 1b be a4 ab 52 3d 70 9b e3 bd
       -0.07035876 -0.1517326 0.05143322 -0.11113632
000020 07 65 ad bc 32 e2 27 be 57 70 ce bd 85 66 c3 bc
       -0.021166338 -0.1639488 -0.10080021 -0.023852596
000030 72 5e 83 bd d4 3b 33 be 62 d2 eb bc 3d 75 7c bd
       -0.064144984 -0.17503291 -0.028786842 -0.061635245
000040 54 08 92 bd ff 5e 4a bd 56 48 38 bd 88 3c 01 be
       -0.07130495 -0.049407 -0.04499086 -0.12620747
000050 99 86 5c bd c5 0d 21 be 34 d5 9b bd b9 b2 3e bd
       -0.0538393 -0.15727909 -0.07609025 -0.046557162

sequential/dense_2/BiasAdd/ReadVariableOp f4 [4]
000000 c3 24 33 3e cd 0c 3c 3e 05 f7 fe 3e 3b c2 47 bf
       0.17494492 0.18364258 0.49797836 -0.7803075

sequential/dense_1/BiasAdd/ReadVariableOp f4 [10]
000000 cf 8c 9a 3e fc dd 6e 3d 5a 1c 83 3f a2 9f c8 3d
       0.30185553 0.05831717 1.0243027 0.097960725
000010 99 76 b0 3d 1f 74 fc 3a 9e 0f 14 3b 55 20 2c 3f
       0.08616371 0.0019260681 0.0022592316 0.67236835
000020 c5 a6 4f 3f ac fb 54 3e
       0.81113845 0.2079913

sequential/dense/MatMul f4 [24, 32]
000000 4c 13 1c 3e e2 44 94 3e a2 42 b6 bf a5 9c 47 3f
       0.15241736 0.28958803 -1.4239085 0.77973396
000010 7d 67 94 bf f5 96 06 3f 6a 42 ba bf 1a e9 ec 3e
       -1.1594082 0.5257409 -1.4551518 0.46271592
000020 75 81 8f bf 9e 48 9a 3e 81 34 8a bf fa 6d 54 3e
       -1.1211382 0.30133528 -1.0797273 0.20745078
000030 85 0d 44 bf b0 50 fe be 7e 45 62 bf 26 f4 0e bf
       -0.7658313 -0.49670935 -0.88387287 -0.5584129
000040 a6 18 39 bf 3b e5 51 bf 21 20 0c be 24 b2 56 bf
       -0.72303236 -0.819904 -0.13684131 -0.8386557
000050 8f 10 39 be 31 f8 50 bf 1e 4b 7d 3e d8 b1 4b bf
       -0.18072723 -0.8162871 0.24735686 -0.79568243
000060 52 50 69 be 07 79 5e bf 23 8c 8c be ec 2f a4 bf
       -0.22784546 -0.86903423 -0.27450666 -1.2827125
000070 33 d9 06 bf 8a b6 7b bf a2 f9 72 bf a0 3b 64 bf
       -0.5267517 -0.9832541 -0.9491216 -0.8915348
000080 c8 36 04 be a8 a7 02 3d 00 a3 97 3f 78 50 a9 bc
       -0.12911522 0.03189817 1.1846619 -0.020668253
000090 86 8a a1 3f bd 71 02 bf ee 0e ee 3f ff c5 1d bf
       1.2620399 -0.509548 1.8598306 -0.61630243
0000a0 5c 6f 6b 3f 54 0c 6b bf 98 df 73 3f d8 ad 30 bf
       0.91966796 -0.91815686 0.9526305 -0.69015265
0000b0 89 fc 86 3e 25 47 06 bf bb a6 e9 be 3d fd d4 be
       0.26364544 -0.5245231 -0.45635018 -0.41599455
0000c0 03 10 ec be ed 76 92 be 11 47 34 bf 09 0b 6b be
       -0.46105966 -0.28606358 -0.7042094 -0.22953428
0000d0 24 08 29 bf 70 05 2d bc b0 4f 4b bf 36 6a 9d bc
       -0.66028047 -0.010560378 -0.7941847 -0.019215684
0000e0 37 3b 23 bf ec 11 f7 3d 9b 2b 7d be 88 69 89 3d
       -0.6376223 0.12063965 -0.24723665 0.067095816
0000f0 f7 e1 71 be 4b 32 f0 bd 8d 0e 9d be 37 a0 15 be
       -0.23621355 -0.117283426 -0.30675164 -0.14611898
000100 44 0e c9 3d 9e 3c 43 be 0e 4b 05 3f be cd 9e bf
       0.09817174 -0.19066092 0.5206765 -1.2406538
000110 0f 2a fc 3e c4 6f 95 bf 63 31 37 3f 65 24 4a bf
       0.49250838 -1.1674733 0.71559733 -0.78961784
000120 19 9f 0d 3f 2a 0c 10 bf 28 e8 53 3f 3a 4b 0b be
       0.5532089 -0.5626856 0.8277612 -0.13602915
000130 1b ee 5c 3f a1 0c 51 3e d2 ef 44 3f bf 40 ef 3d
       0.8630082 0.20414974 0.76928437 0.11682271
000140 4e 23 43 3f 20 66 01 3f 2f a3 03 3f 6d b6 fd 3e
       0.76225746 0.50546455 0.51420873 0.49553242
000150 f4 05 af 3c 9e ae e0 3e d4 74 86 bd 88 07 a8 3e
       0.021365143 0.43883222 -0.06565252 0.32818246
000160 27 96 2a be f7 a4 87 3e 62 87 46 bf c7 d1 58 3e
       -0.16658841 0.26493046 -0.7755033 0.21173774
000170 69 36 18 bf 94 89 48 3c c9 fe 6c bf 06 03 ce be
       -0.59458023 0.012239832 -0.9257627 -0.40236682
000180 7e e5 4a be 6c 31 31 3e d4 29 59 3d 1d 6b 80 3f
       -0.19814107 0.17304009 0.053018406 1.0032688
000190 f9 35 cd 3d 8a 7a 82 3f 5c bf 35 3e 06 f3 91 3f
       0.1002006 1.0193646 0.17748779 1.140229
0001a0 f7 c5 64 bc 65 49 96 3f de 32 0a bf 27 ef 90 3f
       -0.013963214 1.1741148 -0.5398387 1.1322984
0001b0 00 21 0b bf 6e 66 32 3f c6 4a 61 bf 33 5c 30 3f
       -0.5434723 0.69687545 -0.8800472 0.68890685
0001c0 23 6f 6b bf 95 44 39 3e ae 46 58 bf a8 e9 c6 3e
       -0.91966456 0.18092568 -0.8448285 0.3885014
0001d0 c7 de 10 bf 26 ee 6c 3b ee 95 51 be 6b 38 02 bf
       -0.5658993 0.003615269 -0.2046735 -0.50867337
0001e0 7a 43 99 be 12 42 63 bf f4 fb 30 3e 14 4a 5c bf
       -0.29934293 -0.8877269 0.17283612 -0.86050534
0001f0 98 61 18 3f 18 21 2a bf f7 2f 0f 3f 69 2d 27 bf
       0.59523916 -0.6645675 0.55932564 -0.65303665
000200 70 c9 56 3d e8 9a 44 bd ad 81 8b 3e ec 3a a4 bf
       0.0524382 -0.047999293 0.27247372 -1.2830482
000210 60 2b f0 3e 13 2a 89 bf d7 d0 b3 3e 6c ec e5 be
       0.46908092 -1.0715965 0.3512027 -0.44906938
000220 17 8c 5c 3e b5 68 af be ec 4d 02 3e 33 b8 71 be
       0.21537815 -0.34259573 0.12725037 -0.23605423
000230 aa 97 5c 3e 5b 17 24 bd 6e 20 b9 3e b9 5e 1a be
       0.2154223 -0.040061336 0.36157554 -0.15075196
000240 47 0f 48 3e ad 48 5d 3e 00 2c 8a 3e 70 c3 c9 3d
       0.19537078 0.21609755 0.26986694 0.0985173
000250 59 49 4c 3e 96 25 3c be 34 da d4 3e d3 2b 28 3e
       0.19949855 -0.18373713 0.41572726 0.16422968
000260 3b a8 25 3f 05 52 37 3d 4f df 64 3f 04 d9 9a 3e
       0.64709824 0.044755954 0.8940324 0.30243695
000270 cf d9 9a 3f 9a 64 2a 3f 7c 6b c9 3f 10 ce 92 3f
       1.209772 0.66559756 1.5735927 1.1469135
000280 16 de 81 be 2a dc 56 be d8 c4 cb 3e e7 0d ad 3f
       -0.2536475 -0.20982423 0.39798617 1.3519868
000290 e2 ed f4 3e cf 04 ca 3f 9e d9 0d 3f e6 5b 69 3f
       0.4783774 1.5782717 0.5541018 0.9115585
0002a0 d3 0e 8c 3f 42 ba 70 3f b6 39 4a 3f 31 2f 01 3f
       1.0942024 0.94034207 0.7899431 0.50462633
0002b0 32 93 1f 3f 2d 97 36 bc 4a 8f 29 3f 4e 08 c2 bd
       0.6233398 -0.011144442 0.66234267 -0.0947424
0002c0 d1 17 28 3f 61 7b 15 be 88 bf 16 3f c8 ee af be
       0.6566134 -0.14597847 0.58886003 -0.34361863
0002d0 a7 7b ed 3d 1b 0d b1 be c1 b9 a9 3e ad 57 aa be
       0.115958504 -0.3458031 0.3314953 -0.33270016
0002e0 81 fc da 3e f9 ab 73 be 0c 25 c2 3d a9 60 de be
       0.4277077 -0.23796071 0.094797224 -0.4343312
0002f0 8a b6 74 be 59 98 21 bf e3 93 2b 3e 48 8b 17 bf
       -0.23897758 -0.6312309 0.16755633 -0.591969
000300 b8 d5 83 be 90 b9 d9 bc 4c 50 6b 3e 2b 58 8c bf
       -0.25748992 -0.02657774 0.2297985 -1.0964407
000310 ec 73 8a 3f fc 62 a6 bf 1d da 83 3f a1 c2 a8 bf
       1.0816627 -1.2998958 1.0300938 -1.3184396
000320 af bc 82 3f 91 f8 84 bf 09 c1 63 3f 01 80 19 bf
       1.0213832 -1.0388356 0.88966423 -0.59960943
000330 90 ec e3 3e 5e c4 92 be e7 a8 3d 3f 52 a2 83 be
       0.4451642 -0.2866544 0.7408585 -0.25709778
000340 84 8e 26 3f 64 c2 44 3e 63 89 32 3f 7f 34 c5 3e
       0.6506121 0.19214779 0.69740885 0.38516614
000350 f4 e8 0e 3f ce 5f 0e 3f f4 3d bf 3e 74 e5 3a 3f
       0.5582421 0.55614936 0.37351954 0.7300637
000360 a4 a9 45 be 19 0d 80 3f c9 8e 18 bf 52 f6 8a 3f
       -0.19302994 1.0003997 -0.5959287 1.0856421
000370 37 02 2b bf 7c 8d 53 3f ff e3 af bf 36 96 7b 3f
       -0.66800255 0.82637763 -1.3741454 0.9827608
000380 06 71 9f be a0 a3 6f bc e8 db 95 bf 49 0f 78 3f
       -0.31140918 -0.014626414 -1.1707735 0.96898323
000390 ca 6a 6d bf 5d c6 6a 3f 59 20 81 bf 19 28 30 3f
       -0.9274107 0.9170893 -1.0087997 0.68811184
0003a0 8b 15 64 bf 40 b4 dc 3e 78 4a 0b bf 92 79 e6 3e
       -0.8909537 0.4310627 -0.54410505 0.45014626
0003b0 9c a0 a0 be b5 9e cc 3e 62 c1 52 bd cf 6e b5 3e
       -0.31372535 0.39964834 -0.051453955 0.35436103
0003c0 6c 0b ae 3e 7a 6a 89 3e 61 89 0f 3f f6 23 2c 3e
       0.3399309 0.26839048 0.56069 0.16810593
0003d0 2b 81 00 3f f7 df 25 3e a1 ed ff 3e fc e9 97 3d
       0.50197095 0.16198717 0.49985984 0.07417676
0003e0 4a 75 2c 3f a1 8e 97 3d d8 05 08 3f 35 db 0a 3e
       0.6736647 0.07400251 0.53133917 0.13560183
0003f0 ab 29 64 3f 4a 9d 8a 3e 0e 7c 88 3f 6c bf 84 3e
       0.8912608 0.27073127 1.0662858 0.25927293

sequential/dense_1/MatMul f4 [10, 24]
000000 bf f3 64 3f f7 06 1e 3f 71 1a 24 3d 19 b0 81 3f
       0.8943443 0.6172938 0.04006428 1.0131866
000010 9e 62 bf 3e f6 de df 3e 94 ed 0c c0 dd 31 11 be
       0.37379926 0.43724793 -2.2020006 -0.14179178
000020 f9 df 92 3f 95 d7 17 3f f7 15 97 3f 7f 68 64 3f
       1.1474601 0.5931333 1.1803578 0.8922195
000030 53 2a 87 be 97 ab f6 3d bb d0 19 3f 2a 72 a8 3f
       -0.26399478 0.12044447 0.6008412 1.315984
000040 4c 8d a2 3f 36 90 85 3f 3b 1e 5c 3f 07 ed cb 3d
       1.269937 1.0434635 0.8598363 0.09957319
000050 8b 26 f1 3e 33 21 82 3f 12 97 92 3f 4a 42 bb 3d
       0.47099718 1.0166382 1.1452353 0.09143503
000060 d6 d7 34 bf ed 9e 38 bf ed a8 41 3f 78 7e fb be
       -0.7064184 -0.721175 0.75648385 -0.49119925
000070 94 0e c1 3e 6b 3f 50 be 40 7a 85 3f 36 36 db ba
       0.37706435 -0.20336692 1.0427933 -0.001672453
000080 0c 9f 78 bf 80 56 f1 3e 08 3c c5 be d7 9b 3d bf
       -0.97117686 0.47136307 -0.38522363 -0.7406592
000090 50 50 f9 3d da fa 1a 3f bd 32 1f 3f f7 10 b2 bb
       0.121735215 0.6053902 0.62186795 -0.0054341513
0000a0 e6 f8 2b 3f 94 53 2d bf 5b dc 7f 3f f1 3f 80 bd
       0.67176664 -0.67705655 0.9994561 -0.06262196
0000b0 3c a8 62 3f 25 a3 32 3f c3 68 73 3f ff 8e f3 be
       0.88537955 0.6978019 0.9508173 -0.47570035
0000c0 5b b8 87 be 22 ab 97 3e 65 61 82 bf 18 69 ad be
       -0.2650784 0.2962275 -1.0185972 -0.33869243
0000d0 81 d5 08 bf 89 f6 a8 3e 68 96 88 bd d7 d0 90 bf
       -0.5345078 0.3300059 -0.06669313 -1.1313733
0000e0 af 95 23 bf 7c 84 8b 3d 0d b6 d8 be a2 f4 04 bf
       -0.63900274 0.06812379 -0.42326394 -0.5193578
0000f0 ab a4 d8 bf 18 a3 0c 3f 3a 06 43 bf eb d8 33 bf
       -1.6925253 0.5493636 -0.76181376 -0.70252866
000100 4e 03 b4 be 6d bc 4c bd 19 2f dd be 8e 69 0b 3f
       -0.3515877 -0.049984384 -0.43199995 0.5445794
000110 ed 1c 5a bf 4f 80 2f bf d4 44 a4 bf 05 84 f7 bf
       -0.8520039 -0.6855516 -1.2833505 -1.9337164
000120 ee 24 91 3e ae 6f 06 be 2a 1c 80 3f 05 3c 34 3f
       0.28348488 -0.1312854 1.0008595 0.7040408
000130 0d 57 5c 3f b3 7a 83 3d a8 ef c6 3e 0a 15 de be
       0.8607033 0.064198874 0.38854718 -0.43375427
000140 7c 58 7c 3f 78 56 30 bf 13 24 05 3f 6d 0c 6c 3f
       0.98572516 -0.6888194 0.5200817 0.9220646
000150 e6 63 00 bc c3 c0 1f 3d c2 3a f2 3e 7f 16 8e be
       -0.007836318 0.03900219 0.47310454 -0.27751538
000160 27 0f 55 3f 2b e0 2b 3f e2 86 50 3f 42 fd 02 bf
       0.83226246 0.6713893 0.81455815 -0.5116769
000170 14 bf 7a 3f be 34 8b 3f 98 17 f4 3e 85 68 1d 3f
       0.9794781 1.0875471 0.4767425 0.6148761
000180 bd 7f d7 3d 31 2c ab 3f 8e f7 91 3e 85 4b a3 3e
       0.10522411 1.3372861 0.28509182 0.31893554
000190 96 62 b7 3e 7c 8f 74 3f 7d 4a d2 3d 65 bc 9c 3f
       0.35817403 0.9553144 0.10268114 1.2244993
0001a0 f9 13 44 3d f5 6e b9 3f 87 94 37 3e eb 8d 62 bd
       0.04787061 1.4486986 0.17927752 -0.055311125
0001b0 12 5b c2 3f 43 29 70 3f 2d 2b d1 3d f9 1e 55 3f
       1.5184042 0.9381296 0.10213313 0.83250386
0001c0 9d df b4 bd 7e 00 da 3e 5b 48 1b 3f b0 c6 e1 3f
       -0.08831713 0.425785 0.6065728 1.763876
0001d0 3b b6 b6 bd ae 70 5f be 1e 30 cd 3e 36 6c 91 3f
       -0.089214765 -0.21820328 0.40075773 1.1361148
0001e0 9b bb 63 bf 64 bb ab bf be 2f a3 be de e6 3b bf
       -0.8895814 -1.3416562 -0.31872362 -0.7339915
0001f0 25 ca 32 3f 8f 72 95 3e c3 50 a3 bd c6 d1 03 3f
       0.698397 0.29188964 -0.079743885 0.51491964
000200 ab da 88 bb 5c e4 0b bd 76 82 aa be 56 82 35 bf
       -0.004176458 -0.034153327 -0.3330266 -0.70902
000210 c8 c1 5b 3e 43 a1 b8 be e6 93 93 be 67 86 5f bf
       0.2146064 -0.36060533 -0.28823775 -0.87314457
000220 13 23 b0 3e 3b 26 50 3f 9e 7a 96 3e c8 66 e0 be
       0.3440176 0.81308335 0.29390424 -0.43828416
000230 32 e3 34 be 1a a5 0c 3f dc ff 57 bc 72 e5 50 bf
       -0.17664793 0.54939425 -0.01318356 -0.81600106
000240 8c 93 8c 3e 70 e5 b7 3f ee 32 48 bd 59 c7 ab bd
       0.2745632 1.4366894 -0.048876695 -0.08387632
000250 b6 94 90 bd 72 3c df 3f 43 37 d2 3c 2e 84 9e 3f
       -0.07059614 1.7440321 0.025661116 1.2384088
000260 14 5b 3d be 7d 2b c8 3f f1 9a cf 3c 0e 88 74 3c
       -0.18491775 1.5638272 0.025342437 0.014925016
000270 5b 73 af 3f 56 c3 8e 3f 5e 31 40 3d 16 83 94 3f
       1.3707079 1.1153362 0.04692208 1.1602504
000280 fb fc 89 bd 50 57 59 3f 51 81 0e be 70 82 d2 3f
       -0.06737705 0.84898853 -0.13916518 1.6446056
000290 d3 9e c5 3e 63 5d d1 bd f1 03 14 3e d1 a7 77 3f
       0.38597736 -0.1022289 0.14454629 0.9674044
0002a0 69 80 de bf 36 01 ab bf 9c 8d 19 c0 6d f9 01 c0
       -1.7382938 -1.3359745 -2.3992682 -2.0308487
0002b0 0d c0 16 c0 2e 7a bd bf 5f cd e2 be 66 58 d3 bf
       -2.3554718 -1.4802911 -0.4429731 -1.6511352
0002c0 8b 36 c3 bf 1a 73 0b c0 40 0d 0b bf eb 11 08 c0
       -1.525102 -2.1789002 -0.5431709 -2.1260936
0002d0 f3 9d f9 bf 17 2b ed be 7e 9b 3c c0 da a8 0b c0
       -1.9501327 -0.46321937 -2.9469905 -2.182181
0002e0 7b 11 99 bf 38 09 7c bf 7e d2 30 c0 33 68 fb bf
       -1.195846 -0.98451567 -2.7628474 -1.9641174
0002f0 bd 1c 1b c0 22 aa 38 bf 35 02 ed bf 60 5c 9c bf
       -2.423629 -0.721346 -1.8516299 -1.2215691
000300 3b 02 80 3e 30 11 1e bf 13 ca 19 c0 76 e1 56 bf
       0.25001702 -0.61744976 -2.4029586 -0.83937776
000310 45 72 fe bf 4a 5f 1d bf 1c b1 72 be 1f dc a6 bf
       -1.9878622 -0.61473525 -0.23700374 -1.3035926
000320 2b 73 a7 be 08 fd ef bf 2d 15 4d 3f 49 dc ad bf
       -0.32705054 -1.8749094 0.80110437 -1.3582851
000330 ab b9 c8 bf b4 e6 8c bf 11 47 de bf 49 bc 9f be
       -1.5681661 -1.1007905 -1.7365438 -0.31198338
000340 4b 2c 29 c0 75 5b eb bd 19 bf b9 bf 77 b2 10 c0
       -2.6433284 -0.114920534 -1.4511443 -2.2608926
000350 62 1d 9a bf f9 ce c3 bf ec 4a 8f bf 4c 25 22 bf
       -1.2040217 -1.5297538 -1.1194739 -0.6333816
000360 bc 9d 2b 3f a4 1e 05 3f 75 b6 b6 3f fd 99 8f 3f
       0.6703756 0.5199988 1.4274431 1.1218868
000370 32 b6 8a 3f c0 a4 be 3e 4a a3 30 3f 6f 4c 6e 3f
       1.0836852 0.3723507 0.6899916 0.9308538
000380 d8 ea a9 3f 15 09 ae 3e 33 30 16 3f 4f de a4 3f
       1.3274794 0.33991304 0.58667296 1.2880343
000390 3c 41 6b 3f 41 c5 c1 3d 12 0a 45 3f f3 0a 91 3e
       0.91896415 0.09461451 0.7696849 0.28328666
0003a0 a9 67 a5 3f ee 22 7b 3f 9c 80 47 3f 6c e8 15 3f
       1.292226 0.98100173 0.7793062 0.5855777
0003b0 b5 73 5c 3f 1b cf 70 3f 21 6c 2f 3f ad 36 9c 3f
       0.86114055 0.9406602 0.68524367 1.2204186

sequential/dense_2/MatMul f4 [4, 10]
000000 18 00 82 c0 d0 a5 0d c0 ba 9b c5 3f bd c8 5d c0
       -4.0625114 -2.2132454 1.5438149 -3.465377
000010 4a 94 42 c0 ec a2 04 c0 58 60 71 c0 dc 01 11 40
       -3.0403008 -2.072444 -3.7715054 2.2657385
000020 f8 47 f3 3f 85 d7 3d c0 71 4e 83 3f fe f1 0f 3f
       1.9006338 -2.9662793 1.0258313 0.56228626
000030 42 30 e1 bf d7 34 dd 3e c8 2c 8a bf 0f ec 9e bf
       -1.7592852 0.43204376 -1.0794916 -1.2415789
000040 1d b2 ea bf c3 b6 b2 bf 54 40 40 be 8c 03 3d 3f
       -1.8335606 -1.3962024 -0.18774539 0.7383354
000050 e0 36 26 bd 49 8e b1 bf 15 c2 c1 3e 8f dc d3 be
       -0.040579677 -1.3871547 0.37843385 -0.4137921
000060 61 4c 0e 3f 56 8d 49 bf bc eb 85 3f 2e e1 0e c0
       0.55585295 -0.78731287 1.0462565 -2.2324939
000070 24 48 e5 bf 27 c7 14 3f de a6 6e 3f 7d d4 22 3f
       -1.791264 0.5811638 0.9322337 0.6360548
000080 05 13 28 bf 33 df ad be 3e 09 7d 3e 41 42 6e 3f
       -0.6565402 -0.3395935 0.24710557 0.93069845
000090 88 3b 53 3f 5f 9f 35 be ba aa d6 bd 44 2b 95 3e
       0.8251271 -0.17736576 -0.10481782 0.29134572
